hey_troll.tflite (tflite, 206964 bytes, 9 tensors)

arith.constant f4 [1, 32]
0	0x3b56014d	0.0032654584
1	0xbea4508f	-0.3209271
2	0xbeb7f1c4	-0.3592664
3	0x3d4eba81	0.050470833
4	0x3e0483ab	0.12940852
5	0xbea0094e	-0.312571
6	0xbe2682fc	-0.16260904
7	0xbeb47ba7	-0.3525059
8	0x3e5cdaa3	0.21567778
9	0x3c7b4372	0.015335904
10	0xbd833910	-0.06407368
11	0x3e3400c6	0.1757842
12	0x3e867c36	0.2626664
13	0xbeadaebc	-0.33922374
14	0xbea3045d	-0.31839266
15	0x3d2731f1	0.040819112
16	0x3dbabfc9	0.09118611
17	0xbeb77087	-0.3582804
18	0x3d981333	0.07425537
19	0xbeac4fff	-0.33654782
20	0xbea379f5	-0.31928983
21	0x3cddb246	0.027062546
22	0x3cdef362	0.027215663
23	0x3c2e5077	0.0106393015
24	0x3dcbc479	0.099495836
25	0x3e2a4501	0.16627885
26	0xbca58328	-0.020204142
27	0x3df6e1cf	0.12054788
28	0xbc43368b	-0.0119148595
29	0xbc482888	-0.012216695
30	0xbbfa7fb2	-0.007644617
31	0xbea599ac	-0.32343805

arith.constant1 f4 [32, 32]
0	0xbcfa6995	-0.030567924
1	0x3c3012a9	0.010746636
2	0xbe0fcc4a	-0.14042774
3	0xbb69c160	-0.003566824
4	0xbc90f75c	-0.017696075
5	0x3e1c0408	0.15235913
6	0xbdba899e	-0.0910828
7	0xbdf66a53	-0.120319985
8	0xbe06455d	-0.13112397
9	0x3db8aa26	0.09016828
10	0x3c2822d3	0.010262209
11	0xbaff96c9	-0.0019499894
12	0x3dc86051	0.09783996
13	0x3df9e674	0.122021586
14	0x3e101ae0	0.14072752
15	0xbe3dd71f	-0.18539093
16	0x3e22dde1	0.15904953
17	0xbd4e8898	-0.050423235
18	0x3e3be9e5	0.18350942
19	0xbcbbdd26	-0.0229326
20	0x3dcfc9f0	0.101459384
21	0x3dad20d4	0.08453527
22	0x3d28de5c	0.041227683
23	0x3dd828b5	0.10554639
24	0x3c85c827	0.016330792
25	0xbe058a0f	-0.13040946
26	0xbc9a11e6	-0.018807363
27	0xbe3245f0	-0.17409492
28	0xbbc1f9d8	-0.0059196763
29	0x3d03ddb9	0.032193873
30	0xbe2b9d2f	-0.1675918
31	0xbd31679b	-0.043311696
32	0x3e1c49f6	0.15262589
33	0x3dba4ac7	0.09096294
34	0xbe3a14fd	-0.18172069
35	0xbe3cae08	-0.18425763
36	0x3d8f3819	0.06993122
37	0xbd8bc4a9	-0.06824619
38	0xbd9fa558	-0.07795209
39	0x3dfd3ac4	0.12364724
40	0x3e06c42f	0.13160776
41	0xbdd2534a	-0.102697924
42	0x3d947c28	0.072502434
43	0x3dc37479	0.095437
44	0xbdbe8565	-0.09302787
45	0xbdf6c81f	-0.12049889
46	0xbcd9ee9f	-0.026603041
47	0xbd406015	-0.04696663
48	0x3e1226ec	0.1427266
49	0x3e24d1fa	0.16095725
50	0xbe3ca823	-0.18423514
51	0x3d71e60c	0.05905728
52	0x3d80198a	0.06254871
53	0x3da8002d	0.082031585
54	0x3da9e1c1	0.08295012
55	0xbd9d9216	-0.07693879
56	0xbcb75595	-0.022379676
57	0x3dfc93c5	0.12332872
58	0x3dfd44f2	0.12366666
59	0xbb853e97	-0.004066299
60	0x3c722819	0.014780068
61	0x3d104011	0.03521735
62	0x3d984b22	0.074362054
63	0xbdc268b9	-0.094926305
64	0x3df3779f	0.1188805
65	0x3e254a42	0.16141608
66	0xbe1c129c	-0.15241474
67	0xbdba0051	-0.090820916
68	0xbe2b1f96	-0.16711268
69	0x3dd9374e	0.10606252
70	0x3e329359	0.17439021
71	0x3ddb5c48	0.107109606
72	0x3d635dbe	0.05550932
73	0x3dda06a9	0.106458016
74	0xbe300704	-0.17190176
75	0x3e199b18	0.1500057
76	0x3e131c9b	0.14366381
77	0x3c87500a	0.016517658
78	0x3dea242d	0.11432681
79	0x3e3d0915	0.18460496
80	0xbdeb65df	-0.1149404
81	0x3e309be2	0.17246965
82	0x3dca36f3	0.09873762
83	0x3d37814f	0.044801053
84	0x3d9d8b1b	0.07692548
85	0xbe00eb26	-0.12589702
86	0x3e2408ab	0.16018932
87	0xbe1b3bfd	-0.15159602
88	0x3c8e1b16	0.0173469
89	0x3df35ea7	0.11883288
90	0x3bb5fe9f	0.005554035
91	0xbd9fafe2	-0.07797219
92	0x3d5d4057	0.054016437
93	0x3d2c07c8	0.04199961
94	0x3d9dc156	0.077028915
95	0xbb7d5af7	-0.0038658956
96	0xbe5992d2	-0.21247414
97	0xbe1d27df	-0.15347241
98	0x3e2e52e5	0.17023809
99	0x3e1fc44c	0.15602225
100	0x3e03e62c	0.12880772
101	0x3de3c7f0	0.111221194
102	0x3de9248a	0.113839224
103	0xbdd366a4	-0.103223115
104	0xbd8f5303	-0.06998255
105	0x3d00e702	0.031470306
106	0x3dc1b723	0.09458759
107	0x3dd49bc5	0.10381273
108	0x3e01bf27	0.12670575
109	0x3d1b2a83	0.03788234
110	0x3d8b7652	0.06809677
111	0xbe31e1d3	-0.17371301
112	0xbe10a5d0	-0.14125752
113	0x3d811548	0.06302887
114	0x3e0de7b4	0.13857919
115	0xbb026a27	-0.0019899698
116	0xbd07ca6c	-0.03315203
117	0x3d10e156	0.035371147
118	0x3d237680	0.039907932
119	0x3de4ad01	0.111658104
120	0xbd96c1d3	-0.07361188
121	0x3e0751e7	0.13214837
122	0x3c8b9229	0.017037468
123	0x3e2e3386	0.17011842
124	0x3db6699f	0.089068644
125	0x3e22d8be	0.15902993
126	0xbe27f346	-0.16401395
127	0xbdb97b98	-0.09056777
128	0xbdeeacaf	-0.116540305
129	0x3cb4d222	0.022072855
130	0x3d2d038c	0.04223971
131	0x3e21a98e	0.15787336
132	0x3de7de76	0.11321728
133	0xbdfb46a1	-0.12269331
134	0x3df023c2	0.1172557
135	0xbe1e4620	-0.15456438
136	0xbd97b7de	-0.07408117
137	0x3dfd063a	0.12354703
138	0xbdd87546	-0.10569243
139	0xbd661220	-0.05616963
140	0x3daa7698	0.08323401
141	0xbdce7fd8	-0.10082978
142	0x3db5270d	0.08845339
143	0x3df008a2	0.117203966
144	0x3dc9bad5	0.098500885
145	0x3d1f58f6	0.0389032
146	0xbd815658	-0.06315297
147	0xbd34c69b	-0.044134717
148	0x3d7b1455	0.061298687
149	0xbd21323f	-0.03935456
150	0xbe0d1a21	-0.13779499
151	0xbdf37eea	-0.11889441
152	0xbca0896f	-0.019596783
153	0xbd5b4592	-0.053533144
154	0xbe140439	-0.14454736
155	0x3d0360b6	0.032074653
156	0x3dc64054	0.09680238
157	0xbd8e4cd7	-0.0694825
158	0xbe108c60	-0.14116049
159	0xbcd68f90	-0.026191503
160	0x3c17d6dc	0.009267535
161	0xbe0a722e	-0.13520119
162	0x3d35a986	0.044351123
163	0xbde4e9f3	-0.11177435
164	0xbdb9e8f5	-0.09077636
165	0xbc6855ff	-0.014180659
166	0x3e2c2071	0.1680925
167	0xbe006665	-0.1253906
168	0x3e1cd3ba	0.15315142
169	0x3e201c12	0.15635708
170	0xbe18df6b	-0.14928977
171	0x3d886382	0.066596046
172	0x3e2134fa	0.15742865
173	0xbdf1ba6f	-0.118031375
174	0x3dfc1255	0.12308184
175	0x3e4e4694	0.20144111
176	0x3c60080d	0.013673794
177	0xbcfb2bb2	-0.030660484
178	0x3d3bf6c3	0.045889627
179	0x3df5f01d	0.120086886
180	0xbd2f059a	-0.04272995
181	0xbdcec9c9	-0.10097081
182	0xbe3220e3	-0.17395358
183	0xbdec5895	-0.11540333
184	0xbd957019	-0.072967716
185	0xbdc5702e	-0.09640537
186	0xbe0d03a1	-0.13770916
187	0xbe33abc3	-0.1754599
188	0xbd995d07	-0.07488447
189	0x3dedc43a	0.11609693
190	0x3e089f8d	0.13342114
191	0x3db6eb12	0.08931555
192	0x3e127352	0.14301804
193	0x3d97774c	0.07395801
194	0xbdf40510	-0.11915028
195	0xbdc472a8	-0.095921814
196	0x3d9a394f	0.07530462
197	0x3df223f3	0.11823263
198	0x3dab2988	0.08357531
199	0xbcc68502	-0.024233345
200	0xbdfc492f	-0.12318646
201	0xbd6cf7eb	-0.05785362
202	0x3e267481	0.1625538
203	0xbdef05d8	-0.116710365
204	0x3c898d38	0.016790971
205	0x3e158083	0.14599805
206	0xbd6dd2f0	-0.058062494
207	0x3e4d01b8	0.20020187
208	0xbd1188ba	-0.035530783
209	0x3d694b59	0.056956623
210	0x3e019d08	0.12657559
211	0x3df740a3	0.12072875
212	0xbdba1c65	-0.09087447
213	0x3e23cd81	0.15996362
214	0xbdf2633d	-0.118353345
215	0xbe1adbe9	-0.15122952
216	0x3bd3c9ef	0.0064632813
217	0xbe12118e	-0.14264509
218	0x3e23f942	0.16013053
219	0x3dac0293	0.083989285
220	0xbe144580	-0.14479637
221	0x3c186beb	0.009303073
222	0xbe2929cc	-0.1651985
223	0x3c179416	0.009251615
224	0xbbbf95e9	-0.005846728
225	0x3e11b8b6	0.14230618
226	0x3e0db7fe	0.13839719
227	0xbdaa3b6e	-0.083121166
228	0x3d4912a0	0.049090028
229	0xbe12e718	-0.14345968
230	0xbd9c29e0	-0.076251745
231	0x3dc6b576	0.0970258
232	0x3e01d3d1	0.12678458
233	0xbd8e5d84	-0.069514304
234	0x3df49069	0.119416066
235	0xbd8654fd	-0.06559179
236	0x3e134efa	0.14385596
237	0x3e1f53eb	0.15559356
238	0x3de2cf46	0.110746905
239	0x3d733a4d	0.05938177
240	0x3dfa1357	0.1221072
241	0x3d1d8265	0.038454432
242	0xbdeadf86	-0.11468415
243	0xbad27174	-0.001605554
244	0x3dc5ae8c	0.09652433
245	0x3dbf3588	0.09336382
246	0x3db30fc5	0.08743242
247	0xbd9284b0	-0.071542144
248	0xbd35b0d7	-0.0443581
249	0xbde1bf8c	-0.11022863
250	0xbe125b67	-0.1429268
251	0x3d4194c1	0.047261003
252	0x3b6c649d	0.0036070712
253	0xba9254ac	-0.001116415
254	0x3c5c5bce	0.013449622
255	0x3e221daf	0.15831636

arith.constant2 f4 [32, 1536]
0	0x3a563bdd	0.00081723725
1	0xbcdb2b5c	-0.026754074
2	0xbc295b0f	-0.0103366515
3	0xbb6a77d1	-0.0035776983
4	0x3b0775bf	0.0020669547
5	0xbc26c930	-0.010179803
6	0xbcbb3d12	-0.022856269
7	0x3c1765d2	0.009240584
8	0xbcee7c03	-0.029111868
9	0xbafa4858	-0.0019095046
10	0x3b7c24b7	0.0038474032
11	0x3c9c41c1	0.019074323
12	0xbcb440fe	-0.022003647
13	0x3b9649a1	0.004586414
14	0x3cf4aaa3	0.029866522
15	0xbcb33b1f	-0.021878777
16	0x3b4c2d00	0.0031154752
17	0x3d0a5221	0.03376973
18	0x3cec30f5	0.028831938
19	0xbbe641e1	-0.0070268963
20	0xbcaa4382	-0.020784143
21	0xbc4dace7	-0.01255343
22	0x3ce0fe8c	0.027465127
23	0xbd00cc85	-0.031445045
24	0x3c61e16f	0.013786658
25	0xbaacb04b	-0.0013175098
26	0x3c419a58	0.011816584
27	0xbc824dc6	-0.015906226
28	0x3b158fcd	0.0022821308
29	0xbcc6e337	-0.024278266
30	0x3cd69d00	0.02619791
31	0x3cb1db9e	0.021711167
32	0xbc8bba2a	-0.017056543
33	0xbccbf90d	-0.02489903
34	0xbd007ea9	-0.031370793
35	0xbcebe614	-0.028796233
36	0x3cbe9203	0.023262983
37	0x3cbeab85	0.023275146
38	0xbcd65550	-0.026163727
39	0xbc559631	-0.013036297
40	0x3bb1aacd	0.0054219724
41	0xbc58b221	-0.013226063
42	0xbcd6ea0e	-0.026234653
43	0x3bf0a6e3	0.007344113
44	0xbc77768c	-0.015103947
45	0xbb9895d6	-0.0046565337
46	0x390b4c5c	0.00013284519
47	0xbc2c8f9b	-0.010532285
48	0x3c97ed67	0.01854582
49	0x3d305e23	0.043058526
50	0xbb3959aa	-0.0028282204
51	0xbcbbe4bf	-0.022936223
52	0xbbbca0c0	-0.0057564676
53	0x3c1c7fa9	0.009551921
54	0xbc6045a2	-0.013688477
55	0x3c6d92a8	0.014500298
56	0x3b88d1f0	0.004175417
57	0xbc3c6ce8	-0.011500575
58	0xbcb3c213	-0.021943128
59	0xbb2bd6c2	-0.0026220535
60	0x3cec332f	0.028833
61	0xbc6cb044	-0.014446322
62	0x3c41c524	0.011826787
63	0xbcc35c4c	-0.023847722
64	0xbc5e84f1	-0.0135815
65	0xbc308180	-0.010773063
66	0x3d06e054	0.03292878
67	0xbc8aa2d0	-0.016923338
68	0xbcb941f0	-0.02261445
69	0x3ce8ce8c	0.028418802
70	0xbb340e0a	-0.0027474188
71	0xbcdec6cc	-0.027194403
72	0x3c89d26b	0.016823968
73	0x3c7cd835	0.015432407
74	0x3bee8453	0.007278958
75	0x3bbf2fb0	0.005834542
76	0x3c26bd57	0.010176978
77	0x3d01b40c	0.031665847
78	0xbc180fe3	-0.009281131
79	0xbc9d0846	-0.019168984
80	0xbccc71f0	-0.024956673
81	0xbb646746	-0.0034851595
82	0x3aef2e5d	0.001824807
83	0x3cb61e80	0.02223134
84	0xbbcfdd2f	-0.006343506
85	0xbc305fc7	-0.010765023
86	0x3d0760be	0.033051245
87	0x3c6a60ae	0.014305277
88	0x3d1cb552	0.038258858
89	0x3c352faa	0.011058727
90	0x3d2ff1f5	0.042955358
91	0x3c45009a	0.012024069
92	0xbcb432a1	-0.021996798
93	0x3c8a9130	0.016914934
94	0x3c7517c9	0.014959284
95	0x3c6505c1	0.013978423
96	0x3bee3465	0.0072694295
97	0x3c51649b	0.012780334
98	0xbccdddc0	-0.025130153
99	0xbc6b9881	-0.0143796215
100	0x3bbb7da2	0.0057217637
101	0xbbfddfb0	-0.007747613
102	0xbca05e6a	-0.01957627
103	0xbd02fd6b	-0.03197996
104	0xbcdd015e	-0.026978191
105	0xbca7eb74	-0.020498015
106	0xbcab1c50	-0.020887524
107	0xbc06a5a3	-0.008218202
108	0xbc858073	-0.0162966
109	0x3c5daacc	0.013529491
110	0xbbb0a079	-0.0053902236
111	0xbc9dec83	-0.019277817
112	0xbccb5ef6	-0.024825554
113	0x3d26f940	0.040765047
114	0xba56073e	-0.00081645313
115	0x3c26c6fc	0.0101792775
116	0xbc57a51c	-0.013161924
117	0x3c0e46d6	0.008683881
118	0xbbc3c32c	-0.005974194
119	0xbceca71d	-0.02888828
120	0x3ca84d40	0.020544648
121	0x3ce2718b	0.027642032
122	0x3ca20844	0.019779332
123	0xbc9faf1d	-0.01949268
124	0xbd070995	-0.032968123
125	0x3c495abd	0.0122897
126	0x3cf5ee66	0.030020904
127	0x3c1d70b0	0.009609386
128	0xba72e746	-0.000926603
129	0xbd0a8f8a	-0.033828296
130	0x3bc1372f	0.005896471
131	0x3c0d840d	0.00863744
132	0xbc36f1cb	-0.011166046
133	0xba29988a	-0.00064695685
134	0x3c07e6a3	0.008294734
135	0xbc11d059	-0.008899772
136	0xbb8a185a	-0.0042143287
137	0x3c6c0a34	0.0144067295
138	0xbb66d12f	-0.0035219898
139	0x3ccd464e	0.025057938
140	0xbcf82242	-0.030289773
141	0x3cca8538	0.024721727
142	0xba665d07	-0.0008787666
143	0xbd1a58a3	-0.037682187
144	0x3baf673b	0.005352882
145	0x3d0f99b3	0.03505869
146	0x3c296ad5	0.010340412
147	0x3be0a97a	0.0068561407
148	0xbb705c97	-0.0036676282
149	0x3a650ca8	0.00087375427
150	0x3c7e51a1	0.015522392
151	0x3b58b885	0.0033068967
152	0x3cc6e41b	0.024278691
153	0xbceb9122	-0.028755728
154	0xbbb7c816	-0.005608569
155	0x3bd74035	0.0065689334
156	0xbc356de0	-0.0110735595
157	0xbd03ee24	-0.03220953
158	0x3c2f164c	0.010686468
159	0x3c948d9b	0.018133929
160	0xbc78cc10	-0.015185371
161	0xbc0412f3	-0.0080611585
162	0x3d644315	0.055728037
163	0xbc826aa4	-0.01591999
164	0x3cd7d629	0.026347237
165	0xb9f2668d	-0.00046234243
166	0xbc9a43cd	-0.018831158
167	0x3c6dafeb	0.014507274
168	0xbb620cfa	-0.0034492598
169	0x3d08882a	0.03333298
170	0xbc7adec3	-0.0153119
171	0x3c46efc2	0.012142124
172	0x3d266095	0.04061945
173	0x3d5ba34c	0.05362253
174	0xbbc14d23	-0.005899088
175	0x3cb2a580	0.021807432
176	0xbcb982f1	-0.022645446
177	0xbcca2a67	-0.024678422
178	0xbb30f538	-0.002700163
179	0xbc3e25d3	-0.011605698
180	0x3c2793ce	0.0102281105
181	0xbc7d1b1e	-0.01544836
182	0xbb2c831a	-0.002632326
183	0xbb63e286	-0.003477247
184	0x3c6f058d	0.014588726
185	0x3cb2d08b	0.021827957
186	0x3d4694d0	0.048481762
187	0xbcd0c079	-0.025482403
188	0xbbb52f91	-0.005529352
189	0x3c0e74fe	0.008694885
190	0xbbed09fb	-0.007233856
191	0x3c93f452	0.018060837
192	0x3c5b7878	0.013395421
193	0x3c75e107	0.015007264
194	0xbc57470d	-0.013139498
195	0xbbf59002	-0.0074939737
196	0x3ccfb574	0.025355078
197	0xbcede1c1	-0.029038312
198	0xbc274a2f	-0.010210558
199	0xbcc48dde	-0.023993429
200	0xbd3ae1c1	-0.045625452
201	0xbc8b8a7d	-0.01703381
202	0x3c77c9b3	0.015123772
203	0x3c6ca100	0.014442682
204	0x3c8985da	0.016787458
205	0xbbdece71	-0.006799512
206	0x3b07dc75	0.0020730768
207	0x3b44b857	0.0030017102
208	0xbb95e99e	-0.0045749685
209	0x3cdb9193	0.026802814
210	0xbc94d13d	-0.018166179
211	0xbc656714	-0.0140016265
212	0x3a99eca2	0.0011743496
213	0xbca4e4d0	-0.020128638
214	0x3b8d6652	0.004315176
215	0xbd3b84fb	-0.045781117
216	0xbc6cb6c1	-0.014447869
217	0x3c22a2a6	0.009926474
218	0x3c4de2f5	0.012566318
219	0x3b114cc8	0.002217101
220	0x3c33dad4	0.010977466
221	0x3c819673	0.01581881
222	0x3d01e785	0.031714935
223	0xbb237eda	-0.0024947436
224	0x3a1cde08	0.0005984013
225	0xbc3585f9	-0.011079305
226	0x3bda122f	0.0066549997
227	0xbcba113b	-0.022713294
228	0xbc9864b7	-0.018602712
229	0xbcc9da10	-0.024640113
230	0xbcab8d6a	-0.020941455
231	0x3bda6856	0.00666527
232	0xbcd47f93	-0.025939738
233	0x3bb3d889	0.0054884595
234	0x3c63eee8	0.01391194
235	0x3c754db5	0.01497214
236	0xbb84bc40	-0.0040507615
237	0x3cb19cb1	0.021681162
238	0xbbe724db	-0.007053954
239	0xbd026877	-0.031837907
240	0x3a86d575	0.0010287004
241	0x3bc28958	0.005936783
242	0x3d0e0ad8	0.03467831
243	0x3be6fd99	0.007049274
244	0xbca09dbd	-0.019606465
245	0xbab71dcc	-0.0013970672
246	0x3bd40c42	0.006471188
247	0xbb8a2d4a	-0.0042168247
248	0x3c380bba	0.011233265
249	0xbcf56a8e	-0.029958036
250	0x3ca7f596	0.020502847
251	0x3cdcdecf	0.026961712
252	0xbb04a966	-0.002024257
253	0x3c492e3f	0.012279092
254	0x3ce1d19e	0.027565774
255	0xbcd45c89	-0.02592303

model_8/tf.__operators__.add/AddV2/y f4 [32]
0	0xbc347e9e	-0.011016516
1	0x3a2875f1	0.0006426266
2	0x3a31906a	0.00067735335
3	0xbba7ba00	-0.0051186085
4	0xbc1172cf	-0.00887747
5	0xbcc1f05e	-0.023674186
6	0x3c7f4cd5	0.015582283
7	0xbbb3076e	-0.005463532
8	0xbc891a27	-0.016736103
9	0x3ce99a75	0.028516034
10	0xbc5ba399	-0.013405704
11	0x3c185490	0.009297505
12	0xbbb7da29	-0.0056107235
13	0x3cadfeff	0.021239756
14	0xbbb3c335	-0.005485917
15	0xbc90bb74	-0.01766751
16	0x3c986738	0.018603906
17	0x3c5b33b9	0.013379031
18	0xbcb1753d	-0.021662349
19	0x3cd0b4d1	0.025476845
20	0x3c37b97f	0.011213659
21	0x3cbbdda4	0.022932835
22	0xbc428b92	-0.0118740965
23	0x3b223520	0.0024750903
24	0x3b7ad9ad	0.0038276718
25	0xbcbc6813	-0.022998845
26	0xbc8642fe	-0.016389366
27	0x3ae2359c	0.0017258408
28	0xbac6e950	-0.0015175734
29	0xbcc02c45	-0.02345861
30	0xba937146	-0.0011248968
31	0x3ccc09a4	0.02490694

model_8/tf.__operators__.add_1/AddV2/y f4 [32]
0	0xbd9986cb	-0.07496413
1	0x3de48b6a	0.111594036
2	0x3dca904e	0.09890805
3	0xbdf9f955	-0.122057594
4	0x3c284567	0.010270453
5	0x3daba29e	0.08380626
6	0x3aeb1c92	0.0017937592
7	0x3d6a0328	0.057131916
8	0x3e08e43d	0.13368316
9	0xbe376640	-0.17910099
10	0xbd969776	-0.07353108
11	0xbe20b931	-0.15695645
12	0xbde8c8f8	-0.11366457
13	0x3e338f38	0.17535102
14	0x3e003da3	0.12523513
15	0xbc5ab3d8	-0.013348542
16	0x3e2dc4df	0.16969632
17	0xbdc0e353	-0.09418359
18	0x3a660317	0.0008774264
19	0x3ddd09c9	0.10792882
20	0xbc495739	-0.012288862
21	0xbd13a2ae	-0.036043815
22	0x3da8e9d7	0.082477264
23	0x3dac76c9	0.08421094
24	0xbe1fc0c4	-0.15600878
25	0x3dd7d326	0.1053832
26	0xbcf452e3	-0.02982468
27	0xbe07c85e	-0.13260028
28	0x3ce4bab1	0.027921053
29	0xbe157864	-0.14596707
30	0x3cd89168	0.026436523
31	0x3d9678d5	0.07347266

model_8/tf.math.add_2/Add/y f4 [1, 32]
0	0x3cab3b43	0.020902282
1	0xba3bdaf1	-0.00071661087
2	0x3b86c22b	0.004112502
3	0x3c91e379	0.017808663
4	0xbc928e88	-0.01789023
5	0xbb246705	-0.0025085818
6	0xbbc73a94	-0.006079981
7	0x3c3df535	0.011594106
8	0x3cb7a65b	0.022418192
9	0x3c5f0982	0.013613107
10	0x3cd9063a	0.026492227
11	0x3cf75a19	0.03019433
12	0xbd4b5711	-0.04964358
13	0xbabe6476	-0.0014525789
14	0xbc008c96	-0.007846018
15	0x3bcdaf76	0.00627702
16	0xbbf41881	-0.00744921
17	0xbafed910	-0.0019443352
18	0x3bf0795f	0.0073386873
19	0x3b563472	0.0032685068
20	0x3c2fb6c0	0.010724723
21	0x3c82eead	0.01598295
22	0xbc0798fc	-0.00827622
23	0x3c5475bb	0.012967522
24	0xbcd2aee6	-0.025718164
25	0xbc0c389c	-0.008558419
26	0xbbd4eb46	-0.0064977733
27	0xbbdf82d5	-0.0068210163
28	0x3cad96b0	0.021190017
29	0xbb0ba4c0	-0.0021307915
30	0xbc1bd333	-0.009510803
31	0x3a239ab1	0.00062410074

model_8/tf.math.add_5/Add/y f4 [1, 32]
0	0xbc1fe061	-0.009758086
1	0x3e8dcc97	0.27695152
2	0x3e640998	0.22269285
3	0x3db2e354	0.08734766
4	0x3d1a1798	0.037620157
5	0x3e6e5f3a	0.23278514
6	0x3e1891de	0.14899394
7	0x3e5f77b0	0.21823001
8	0x3cdaf1d6	0.026726644
9	0x3c80269b	0.015643409
10	0xbdd3d218	-0.103428066
11	0x3d01fb51	0.031733815
12	0x3df41ec7	0.11919933
13	0x3e667e52	0.22509125
14	0x3e74b8c2	0.23898605
15	0x3cdc19da	0.026867796
16	0x3cbef09a	0.023308087
17	0x3e66eba7	0.22550832
18	0x3d83496a	0.06410487
19	0x3e64f3a2	0.22358564
20	0x3e8a8f2e	0.27062362
21	0x3c9d4cf7	0.019201739
22	0x3ad9ad7a	0.0016607486
23	0xbd09572b	-0.033530395
24	0x3d66a7bd	0.05631231
25	0x3e1a16e8	0.150478
26	0xbbafb86f	-0.0053625624
27	0x3cd51547	0.026011122
28	0xbcde6a7b	-0.027150383
29	0xbc2d429a	-0.010574961
30	0x3bf77fbd	0.0075530694
31	0x3e81ff33	0.25390014

model_8/tf.math.multiply_10/Mul/y f4 [1, 32]
0	0x3f821187	1.0161599
1	0x3f7e1527	0.99251026
2	0x3f812fe3	1.0092739
3	0x3f84dd4f	1.0380038
4	0x3f7ed8f3	0.9954979
5	0x3f787ae2	0.97062504
6	0x3f7d8ee9	0.9904619
7	0x3f7b138c	0.980767
8	0x3f828aee	1.0198648
9	0x3f7f51f0	0.997344
10	0x3f81b37b	1.0132898
11	0x3f8318a6	1.0241897
12	0x3f778f58	0.967031
13	0x3f7ecd9a	0.99532473
14	0x3f79dc7f	0.97602075
15	0x3f7ea8bc	0.9947622
16	0x3f7e16d5	0.9925359
17	0x3f7eb4d2	0.9949466
18	0x3f80dc85	1.0067297
19	0x3f80cd1e	1.0062597
20	0x3f8067b0	1.0031643
21	0x3f84513a	1.0337288
22	0x3f7f5a20	0.99746895
23	0x3f7a5929	0.977923
24	0x3f7dbf79	0.9912029
25	0x3f7f8adc	0.9982126
26	0x3f7f671b	0.997667
27	0x3f7f83a2	0.9981023
28	0x3f83dfa6	1.0302627
29	0x3f7e1811	0.9925547
30	0x3f7f491d	0.99720937
31	0x3f79e84f	0.976201

model_8/tf.math.multiply_22/Mul/y f4 [1, 32]
0	0x3f7f7f84	0.9980395
1	0x3fac84e8	1.347806
2	0x3f9caf1d	1.224094
3	0x3f8c3a3b	1.095527
4	0x3f8465cb	1.0343565
5	0x3f9d52e6	1.2290924
6	0x3f9807e7	1.1877412
7	0x3f99ea9a	1.202472
8	0x3f8600fe	1.0469053
9	0x3f81218d	1.0088364
10	0x3f63ce5a	0.8898674
11	0x3f8484fa	1.0353081
12	0x3f923e62	1.1425288
13	0x3f9c235e	1.2198293
14	0x3fa02a38	1.2512884
15	0x3f84f676	1.0387714
16	0x3f84098c	1.0315413
17	0x3f9bbfbf	1.2167891
18	0x3f8a9fe7	1.0830048
19	0x3f9b4a8a	1.2132123
20	0x3faa7eef	1.3319987
21	0x3f8227b0	1.0168362
22	0x3f806562	1.003094
23	0x3f73d258	0.95242834
24	0x3f86a349	1.0518581
25	0x3f9579d1	1.16778
26	0x3f8022c1	1.0010606
27	0x3f860a31	1.047186
28	0x3f7c9797	0.9866881
29	0x3f7c0c18	0.98455954
30	0x3f80eb52	1.0071814
31	0x3fa61fce	1.2978456
